models/saved_models/model_2025-03-14_17-16-43.pth (torch, 2308 bytes, 2 tensors)

trend_fc.weight f4 [1, 64]
00000000: 0f92 703b 9a96 98bc 4a1f 933d a944 b6bd
00000010: 7a6b c63b 1fee c23d 8133 86bd 17fb 203d
00000020: fe9d a73d f734 95bc 42b9 b43d d1fa efbc
00000030: 54a2 dfbc d07e dcbd 52b8 693d b52c 973c
00000040: b960 00be 645a fa3c f7d5 d33d fe7d bebd
00000050: 2748 fc3c b8a8 263c 6a48 68bd c4f2 b53d
00000060: 93d8 9b3d 30e8 33bd 50fb e23d 143d 7abd
00000070: 01e9 dfbd b458 1cbd f9ff 133d 154c 843c
00000080: bde9 933d 81e8 d4bd 59b3 d03d 2113 413c
00000090: 8e7f b8bd 939c 343d a959 0f3d a99e fa3b
000000a0: f4dc c6bd 54a2 8c3c 60fb 22bb 18c5 81bd
000000b0: 887f 88bd 8d51 943d a515 36bb 8dc6 c73d
000000c0: c987 023e ac19 c9bd 4b51 afbd 7086 1c3d
000000d0: cf09 d8bd 5b92 d83d 2d4f cb3c f831 ad3d
000000e0: 641c e83d 1e92 25bd 1d62 9abd 3c74 59bd
000000f0: 5721 503d 8973 2abd 8fc9 eb3c 9de0 153e
0.0036708151 -0.0186265 0.07183702 -0.08899815 0.0060552927 0.09518074 -0.06552792 0.039301958
0.081844315 -0.018213732 0.088243976 -0.029294403 -0.027299084 -0.10766375 0.057060547 0.018453935
-0.12536897 0.03056068 0.10343545 -0.09301375 0.030796124 0.010172062 -0.056709684 0.088841945
0.07609668 -0.043922603 0.1108309 -0.061093405 -0.10933114 -0.03817053 0.036132786 0.01614956
0.072223164 -0.10395909 0.10190458 0.011784346 -0.09008704 0.044094633 0.034997616 0.0076483083
-0.09710112 0.017167248 -0.002486907 -0.06336421 -0.0666495 0.07242117 -0.0027783897 0.097546674
0.1274711 -0.0981935 -0.08560427 0.038214147 -0.10548746 0.1057479 0.024818027 0.084567964
0.1133354 -0.04042255 -0.07538245 -0.053089365 0.050813045 -0.04161409 0.028782634 0.14636464

seasonal_fc.weight f4 [1, 64]
00000000: b6f3 ec3d 69cd 9cbd 46fa 96bd f76f 59bc
00000010: 6684 9a3d 3342 a8bd 3435 ef3d 5b76 b1bd
00000020: e8fc 593d e30d d1bd 400e 973b 8bbd 67bd
00000030: dc9e b83c a4ca 243d 7099 52bd 42ca dabd
00000040: 81ec 0cbd 673b cd3d da66 e53c a2c1 b9bd
00000050: ae9b c33d 53d5 7fbc 9e4b 52bc b2ab 963d
00000060: 6bc8 b73d 19f1 96bb 1dc3 06bd c6e6 ce3d
00000070: 3d13 09be fee8 8e3d 08a2 8f3d 9f03 ec3d
00000080: 9bec 983c f384 adbd 4bff 553d 3166 d03c
00000090: f41e cbbd 66e1 cb3d 14cf 953d b563 9dbd
000000a0: f529 113d 0fec b2bd 583b c9bd 0d9e b93c
000000b0: 2a10 fd3d 18a7 afbd adfa 4fbc b4e0 0e3d
000000c0: cd77 ffbc 0a20 193d c88e 813d 81f7 f03d
000000d0: eab0 8f3c 6998 d83d e27e 723d 186e 50ba
000000e0: dc38 3d3d 2ca1 6ebd 29a1 16bd 44c8 0b3e
000000f0: ba31 2bbd e21d 89bd bc09 123d 5c51 1b3e
0.11569922 -0.076563664 -0.073719546 -0.013271323 0.07544784 -0.082157515 0.116800696 -0.08665153
0.053219706 -0.10207727 0.004609853 -0.056577247 0.022536688 0.040232316 -0.05141586 -0.10683109
-0.034405235 0.10021096 0.028003145 -0.09070136 0.09551178 -0.015614825 -0.012835411 0.07356967
0.089737736 -0.004606378 -0.03290092 0.1010261 -0.13386245 0.069780335 0.07013327 0.11524128
0.01866751 -0.08472624 0.05224542 0.025439354 -0.09918013 0.09955101 0.07314888 -0.07685033
0.035440404 -0.08736431 -0.09825772 0.022658372 0.12356599 -0.085767925 -0.012694043 0.034882262
-0.031185055 0.03738407 0.063260615 0.117659576 0.017540414 0.10575945 0.059203036 -0.00079509756
0.046196803 -0.058259174 -0.036774788 0.13650614 -0.04179547 -0.06695153 0.035653815 0.15167755
